trained-models/mnist_net.pth (torch, 408543 bytes, 4 tensors)

linear1.weight f4 [128, 784]
0	0xbce6a575	-0.028155068
1	0x37bda493	2.2607192e-05
2	0x3be8102e	0.007082007
3	0x3b9a0865	0.0047007077
4	0xbca1ab70	-0.019735068
5	0xba82b425	-0.00099719
6	0xbd09753c	-0.03355907
7	0xbd0ad98e	-0.033898883
8	0xbcf4fb38	-0.029904947
9	0x3c7d2fc1	0.01545328
10	0x3c1273fc	0.008938786
11	0x3c5179bc	0.012785371
12	0xbc275ff9	-0.010215753
13	0xbd11b8d7	-0.035576668
14	0xbce30744	-0.027713425
15	0xbc531d97	-0.012885473
16	0x3aff7b6e	0.0019491741
17	0xbcd0c8a3	-0.025486296
18	0x3c90f9ac	0.017697178
19	0xbcabd2ae	-0.020974483
20	0x3d04e337	0.03244325
21	0x3bebc381	0.0071949367
22	0xbbf0df53	-0.007350841
23	0xbc584b05	-0.01320148
24	0x3c9cc35a	0.01913612
25	0xbb1435dc	-0.002261511
26	0x3c803f7a	0.015655268
27	0x3adb9525	0.0016752823
28	0x3d053994	0.032525614
29	0xbc044d9c	-0.008075144
30	0x3bd60f4a	0.0065325843
31	0x3cdb34d5	0.02675859
32	0xbbd48429	-0.0064854813
33	0x3a787172	0.0009477354
34	0x3ccc9c6c	0.024976932
35	0x3c065809	0.0081997
36	0xbd06520f	-0.0327931
37	0x3c7aa5da	0.015298331
38	0x3cf869f1	0.030323954
39	0xbd0efb27	-0.034907486
40	0xb9ea6afd	-0.0004471167
41	0x3cd6b354	0.026208557
42	0x3c4dbc72	0.012557136
43	0xbb20a548	-0.0024512578
44	0xbcb1d011	-0.02170566
45	0xbcce4c72	-0.025182936
46	0xbce11b16	-0.027478736
47	0x3cbaceba	0.022803653
48	0x3d01f3ba	0.031726576
49	0xbc7d3c99	-0.015456342
50	0x3a8a4c89	0.0010551374
51	0xbc1f0811	-0.009706513
52	0x3bdfb1b8	0.0068266056
53	0xbc670ca5	-0.014102136
54	0x3c1aec2e	0.009455724
55	0x3d0bca66	0.03412857
56	0x3d042834	0.032264903
57	0xbc14fdea	-0.009093741
58	0xbce454b6	-0.027872425
59	0x3cc19c47	0.02363409
60	0xbc992b7b	-0.01869749
61	0x3c556574	0.013024677
62	0x3cca2cfc	0.024679653
63	0xbab19788	-0.0013549188
64	0xbd01d598	-0.03169784
65	0x3c7e77ec	0.015531521
66	0xbcc4e5d6	-0.024035376
67	0xbd2e6908	-0.042580634
68	0xbb3431fd	-0.0027495616
69	0xbd027348	-0.031848222
70	0x3bf20eea	0.007387032
71	0x3c7559ce	0.014975024
72	0xbc2d245b	-0.01056775
73	0x3c1e3f10	0.00965859
74	0x3c79c722	0.015245231
75	0xbb00693b	-0.0019593972
76	0xbc4317c9	-0.011907526
77	0xbc7dd694	-0.015493054
78	0xbcf9071a	-0.030398894
79	0xbb8fe6cf	-0.004391528
80	0x3c3e5c5a	0.011618698
81	0x3c04079e	0.008058457
82	0x3cac2f81	0.021018745
83	0xbba7d900	-0.005122304
84	0x3c3d8697	0.011567733
85	0xbcdbcdec	-0.02683159
86	0xbbfa54e0	-0.0076395124
87	0x3c38587c	0.011251565
88	0xbc2236ae	-0.009900732
89	0xbb7671ef	-0.003760453
90	0xbc3b4469	-0.0114298845
91	0x3bf2a39e	0.0074047586
92	0x3cba5f65	0.022750566
93	0xbd1001da	-0.035158016
94	0x3be87f5a	0.0070952596
95	0xbd748b76	-0.059703313
96	0xbd685291	-0.056719366
97	0xbc77edd7	-0.015132389
98	0x3cc26bec	0.023733102
99	0x3cc919aa	0.02454837
100	0xbd1e78f2	-0.03868956
101	0xbc2147a7	-0.009843743
102	0x3c73e90b	0.014887105
103	0x3c89458f	0.016756801
104	0x3d0eb709	0.034842525
105	0x3bb5382d	0.0055303783
106	0x369eb9f2	4.730414e-06
107	0xbcb4afbe	-0.022056457
108	0xbd247e63	-0.040159594
109	0x3cd0f383	0.02550674
110	0xbbdd8093	-0.006759712
111	0x3c767093	0.015041488
112	0x3d0da4b5	0.034580905
113	0x3c4e1617	0.012578509
114	0x3bfd1bc1	0.007724256
115	0x3c2d4221	0.010574848
116	0x3c1dfe0b	0.009643088
117	0xb9c49641	-0.0003749598
118	0xbd323c64	-0.043514624
119	0xb918581c	-0.00014528673
120	0xbd8b5733	-0.06803741
121	0xbd77d2b5	-0.06050368
122	0xbd3142a7	-0.043276455
123	0x3b899d4b	0.004199659
124	0x3d436cff	0.04771137
125	0xbc34d663	-0.011037442
126	0xbcc6175e	-0.024181064
127	0xbce007ca	-0.027347464
128	0xbd396520	-0.045262456
129	0xbd324c48	-0.04352978
130	0xbd4372f4	-0.04771705
131	0xbbb58764	-0.0055398215
132	0x3af52aa3	0.0018704723
133	0x3d14a3a6	0.03628888
134	0x3bdc4c27	0.0067229453
135	0x3d0f4e5c	0.03498684
136	0x3c541f9b	0.012946988
137	0xbbdd8149	-0.0067597968
138	0x3c1acaa3	0.009447726
139	0xbaff8836	-0.001949555
140	0x38192db7	3.6520618e-05
141	0xbc4ceff3	-0.01250838
142	0x3998a10a	0.00029111683
143	0x3c88281f	0.016620694
144	0x3c5033fd	0.0127077075
145	0x3d075b8a	0.033046283
146	0x3d03034d	0.03198557
147	0xbd2b4a5c	-0.04181896
148	0x3c2d2bae	0.010569496
149	0x3c0f19e3	0.008734199
150	0xbd4670c5	-0.04844739
151	0xbc088231	-0.008331821
152	0x3c752bb0	0.014964029
153	0x3dbd187e	0.09233187
154	0x3d03ff7f	0.032226082
155	0xbc46467c	-0.012101766
156	0xbc0cdc67	-0.00859747
157	0x3d0ea504	0.03482534
158	0xbc944132	-0.018097494
159	0xbdb6e2fc	-0.089300126
160	0xbd257e53	-0.040403675
161	0xbd562149	-0.052277837
162	0xbd024b37	-0.03181001
163	0xbbc59956	-0.006030242
164	0x3cb1f00b	0.021720907
165	0xbca7eb3b	-0.020497909
166	0xbc8f0111	-0.017456563
167	0xbcb2ff0f	-0.021850137
168	0xbb444fa5	-0.0029954698
169	0xbc673b6f	-0.014113291
170	0xbc90d309	-0.017678754
171	0xbb816195	-0.0039484003
172	0xbba82e11	-0.0051324447
173	0x3d0c59a9	0.034265194
174	0x3bf5d6cd	0.007502413
175	0xbd303611	-0.04302031
176	0xbcbafd44	-0.022825845
177	0xbd8c6af0	-0.06856334
178	0x3cebd542	0.028788213
179	0x3e1cf58d	0.15328045
180	0x3d9cf9ec	0.07664856
181	0x3d6aa6f2	0.057288118
182	0xbcd0f6c3	-0.02550829
183	0xbd220842	-0.039558657
184	0xbd0be1bb	-0.03415082
185	0xbd1c4c6e	-0.038158827
186	0xbd29e6e1	-0.04147995
187	0x3c610e4c	0.013736319
188	0x3cfe9808	0.031078354
189	0xbc9f8dad	-0.019476736
190	0xbc925525	-0.017862866
191	0xbca11c94	-0.019666947
192	0x3abe2694	0.0014507347
193	0xbd0acdc5	-0.033887643
194	0xbc3734ef	-0.011182054
195	0xbcbb09ae	-0.022831764
196	0x3bfb2cf9	0.0076652733
197	0x3cc45333	0.023965454
198	0xbc0fd720	-0.008779317
199	0x3c4d52a5	0.012531911
200	0xbc9c7dd2	-0.019102965
201	0x3bee4b30	0.0072721466
202	0xbd6400a1	-0.055664662
203	0xbd13aef2	-0.036055513
204	0xbd01c9de	-0.031686656
205	0x3cf74adb	0.030187061
206	0x3cbbaf61	0.022910776
207	0x3d2151d6	0.039384685
208	0x3dd788a5	0.1052411
209	0x3d44e70a	0.0480719
210	0xbd35e6cb	-0.044409554
211	0x3d98b4e1	0.07456375
212	0xbb5a580d	-0.0033316643
213	0x3a9647fc	0.0011465545
214	0x3cc27e11	0.023741754
215	0x3cf1a6cd	0.029498482
216	0x3b12cca4	0.0022399807
217	0xbc6e1494	-0.014531273
218	0x3d28d493	0.04121835
219	0x3d55c0c3	0.052185785
220	0x3c72ba68	0.0148149505
221	0x3c1da7b8	0.009622507
222	0xbc6a8439	-0.014313751
223	0xbc1c665f	-0.009545892
224	0x3ced49d8	0.028965876
225	0xbbf7c159	-0.0075608906
226	0x3c608091	0.013702528
227	0x3cf4c584	0.029879339
228	0xbd4434f5	-0.047902066
229	0xbb101d76	-0.0021990216
230	0x3c33f1c8	0.010982938
231	0xbca8c4c9	-0.020601647
232	0xbd471c2f	-0.048610862
233	0xbcc4320d	-0.023949647
234	0xbd2d555a	-0.042317726
235	0x3cf66247	0.03007616
236	0x3d658d56	0.05604299
237	0x3c9ec78e	0.019382264
238	0x3d012f53	0.031539273
239	0x3dad92e6	0.08475284
240	0x3a081d93	0.0005192395
241	0xbd69cc98	-0.05707988
242	0x3d348b9c	0.044078454
243	0x3cb77e07	0.022398962
244	0x3d3c04f9	0.04590318
245	0x3aa85e4c	0.0012845485
246	0xbc9dffcd	-0.019287014
247	0x3ca633fc	0.02028846
248	0x3c8666d7	0.01640646
249	0x3cda24d8	0.026628897
250	0xbc377781	-0.011197926
251	0xbc271823	-0.010198626
252	0xbd105639	-0.03523848
253	0x3d06c34b	0.03290109
254	0x3ca75fe3	0.020431465
255	0xbcb294ec	-0.021799527

linear1.bias f4 [128]
0	0x3dda265e	0.10651849
1	0x3d5b26a1	0.053503636
2	0x3d89c104	0.06726268
3	0x3e3f58ae	0.18686172
4	0x3d512a61	0.051065806
5	0xbdaddfff	-0.084899895
6	0x3d105459	0.03523669
7	0xbdb58fb0	-0.08865297
8	0xbc702d2c	-0.014659207
9	0x3d545404	0.051837936
10	0xbde06f72	-0.109587565
11	0x3dafa4dd	0.08576367
12	0x3de1ecf3	0.110315226
13	0xbdd204c6	-0.10254817
14	0x3d65c401	0.056095127
15	0x3df9a615	0.12189881
16	0xbd406e27	-0.04698005
17	0x3c956d6f	0.018240659
18	0x3dfaed39	0.12252278
19	0x3c760eb6	0.015018156
20	0x3dd34bce	0.10317193
21	0x3debc488	0.11512095
22	0x3d5e7253	0.054308247
23	0x3cb977c7	0.022640122
24	0x3dabf52c	0.08396372
25	0x3c04164b	0.008061956
26	0xbdba215c	-0.09088394
27	0xbd89e39c	-0.06732866
28	0x3cb226ef	0.02174708
29	0x3d8be12c	0.068300575
30	0xbb3c68d3	-0.0028749004
31	0xbd72e0fd	-0.059296597
32	0xbcd1a78f	-0.025592593
33	0xbdc66bcb	-0.096885286
34	0xbe42b031	-0.19012524
35	0xbd72ec5f	-0.059307452
36	0xbd089e4f	-0.0333541
37	0xbe0ee17d	-0.13953204
38	0xbddb5875	-0.10710231
39	0x3d071067	0.032974627
40	0xbd36215a	-0.0444654
41	0xbd6a9119	-0.057267282
42	0x3dd9e8db	0.10640117
43	0xbd8a350d	-0.067484
44	0x3da3459a	0.0797226
45	0xbd27aee1	-0.040938262
46	0xbcad204d	-0.021133566
47	0xbbcbfb84	-0.0062250514
48	0x3e384669	0.1799561
49	0x3d34e32b	0.044161957
50	0x3dfe90ed	0.12429986
51	0xbd83616e	-0.064150676
52	0x3daef73b	0.08543249
53	0xbe708397	-0.23487698
54	0xbd951ba1	-0.072806604
55	0xbcd2e6a7	-0.02574475
56	0xbd9b25ca	-0.07575567
57	0xbe118941	-0.14212514
58	0x3dcb0393	0.09912791
59	0x3d416620	0.047216535
60	0x3dc68729	0.096937485
61	0x3d8eb0ec	0.06967339
62	0xbd36c431	-0.044620696
63	0xbbfbf9d4	-0.007689694
64	0xbcb8b3db	-0.0225467
65	0xbd9e8148	-0.07739502
66	0x3dec6e68	0.11544496
67	0xbd7ae4e0	-0.06125343
68	0x3c6bb4fc	0.014386412
69	0x3d40135c	0.046893463
70	0x3d536ba6	0.051616333
71	0xbd7ad182	-0.06123496
72	0x3d2fa300	0.04288006
73	0x3d18bce7	0.037289526
74	0xbddb70b6	-0.10714857
75	0xbd012b6a	-0.031535544
76	0xbd7944a1	-0.060856465
77	0x3d856457	0.06513279
78	0xbd895d4c	-0.06707248
79	0x3e92e828	0.28692746
80	0x3b238c61	0.0024955499
81	0xbd763a25	-0.060114045
82	0xbd087fdd	-0.033325065
83	0xbddb3422	-0.10703303
84	0xbdf68602	-0.12037279
85	0xbe36483b	-0.17800991
86	0xbdf93b33	-0.121694945
87	0x3d9e23cc	0.077216715
88	0x3c84cdfe	0.016211506
89	0xbde4979c	-0.1116173
90	0xbd588262	-0.052858718
91	0xbd6f8844	-0.058479562
92	0xbdce6762	-0.100783125
93	0x3c6250be	0.013813196
94	0xbdb1464c	-0.08655986
95	0x3d138fb5	0.03602572
96	0x3d800111	0.062502034
97	0x3db507a1	0.08839346
98	0xbd597af9	-0.05309579
99	0xbdd37e7b	-0.103268586
100	0xbd6390db	-0.055558067
101	0xbcb40c82	-0.02197862
102	0x3d670aa9	0.05640665
103	0xbd5dd301	-0.054156307
104	0xbd7bbf3b	-0.06146167
105	0x3e18370d	0.1486475
106	0xbd3500e4	-0.044190302
107	0xbd618c71	-0.055065576
108	0x3c910ffc	0.017707817
109	0x3e071448	0.1319133
110	0xbd53634e	-0.051608376
111	0x3e3417cc	0.17587203
112	0x3c9382a0	0.018006623
113	0xbd9a9ca6	-0.075494096
114	0xb9a01686	-0.0003053436
115	0x3dd16182	0.10223676
116	0x3d8c5307	0.06851774
117	0xbd877455	-0.066139854
118	0xbd286a7e	-0.041117184
119	0xbcaa4749	-0.020785945
120	0x3c71f87b	0.014768715
121	0x3dfa3cb6	0.12218611
122	0x3cb55cf4	0.02213905
123	0x3d5d81c2	0.054078825
124	0xbd1c6493	-0.038181853
125	0xbdbbd404	-0.09171298
126	0xbd39c25b	-0.045351367
127	0x3c5ecc89	0.01359857

linear2.weight f4 [10, 128]
0	0x3e1bf0b5	0.15228541
1	0xbd9f7238	-0.077854574
2	0xbd4c51fe	-0.04988288
3	0xbe8fb4a8	-0.28067517
4	0xbf365cf3	-0.7123558
5	0xbe746e59	-0.2387022
6	0xbece388d	-0.4027752
7	0x3ee484bc	0.44632518
8	0x3d8a1c6a	0.06743701
9	0xbdb5e267	-0.088810734
10	0xbea1efa9	-0.3162816
11	0xbdaa3667	-0.08311158
12	0xbe95fec1	-0.29295924
13	0x3f595d8b	0.8490836
14	0xbeaf3db1	-0.34226754
15	0xbd65a266	-0.05606308
16	0xbe92d3de	-0.28677267
17	0xbeb0da12	-0.34541374
18	0xbe8568e6	-0.26056594
19	0xbe9041a9	-0.28175095
20	0xbd028be6	-0.0318717
21	0xbc7c5e18	-0.015403293
22	0xbe16b7cf	-0.14718555
23	0xbddd5177	-0.10806554
24	0xbea62c0c	-0.3245548
25	0x3e1a4462	0.15065148
26	0x3ef1e14a	0.47242194
27	0xbd98479f	-0.07435536
28	0x3db14065	0.086548604
29	0xbd5d29fb	-0.053995114
30	0x3f2276ec	0.6346271
31	0xbed1f10c	-0.41004217
32	0xbdd982e1	-0.10620666
33	0x3e92f1b4	0.2870003
34	0x3efe5760	0.49676037
35	0xbeb10b55	-0.34578958
36	0x3ef933c8	0.48672318
37	0x3ce17936	0.027523618
38	0xbd48955f	-0.048970576
39	0xbf02a350	-0.51030445
40	0xbe10a5ba	-0.1412572
41	0x3e901e9d	0.28148356
42	0x3f419d38	0.7563052
43	0xbea4f01d	-0.32214442
44	0xbe8db915	-0.2768027
45	0xbe4676a9	-0.19381203
46	0xbe04163e	-0.1289911
47	0xbeace544	-0.33768666
48	0x3eb17a5d	0.34663668
49	0x3e18bcef	0.14915822
50	0x3f181b63	0.5941679
51	0xbe33ee3b	-0.17571346
52	0xbd1261b9	-0.035737727
53	0xbec69ac4	-0.38789952
54	0x3e965ccb	0.2936767
55	0xbe606c42	-0.21916297
56	0x3ed21b86	0.41036624
57	0xbe96f1a2	-0.29481226
58	0x3f079490	0.52961063
59	0x3e01b45f	0.12666462
60	0x3e145f81	0.14489557
61	0x3e9393a7	0.28823587
62	0xb92a993d	-0.00016269549
63	0x3e3a24e3	0.18178134
64	0x3e2dea65	0.16983946
65	0x3e4a538a	0.1975843
66	0xbe1073f6	-0.14106736
67	0xbdf486f7	-0.11939805
68	0xbc6de8eb	-0.014520864
69	0xbf2725b0	-0.6529188
70	0x3e04e7a6	0.12978992
71	0x3efbd06f	0.4918246
72	0xbe29b3d1	-0.16572501
73	0xbdbae028	-0.09124786
74	0x3d3deb6b	0.04636709
75	0x3f20ba87	0.6278462
76	0x3e8f0fda	0.2794178
77	0xbdef7360	-0.11691928
78	0xbeb692c6	-0.35658854
79	0xbeacb930	-0.33735037
80	0xbe8c6981	-0.27424243
81	0x3d1712cb	0.036883157
82	0xbddd5165	-0.108065404
83	0xbed55aac	-0.4167074
84	0xbf0a9251	-0.5412951
85	0x3ca7b859	0.020473646
86	0xbe2b5735	-0.16732486
87	0xbed7fcbf	-0.42185017
88	0x3f22246d	0.6333683
89	0xbd9cbe1c	-0.07653448
90	0xbe8edcef	-0.27902934
91	0xbe41b65f	-0.18917225
92	0xbe813e54	-0.25242865
93	0xbd97e3d1	-0.074164994
94	0xbee02af3	-0.43782768
95	0x3e9f56e1	0.3112097
96	0x3d34463b	0.04401229
97	0x3f2e88b4	0.6817734
98	0x3e64ddc7	0.22350226
99	0xb7b13589	-2.1124974e-05
100	0x3e6facae	0.23405716
101	0xbec3f627	-0.38273737
102	0x3ccec627	0.02524097
103	0xbbc1d003	-0.0059146895
104	0x3dff1e4d	0.12456951
105	0xbe2abe01	-0.16674043
106	0xbb5cacbf	-0.00336723
107	0x3e856989	0.2605708
108	0xbc8dff42	-0.01733363
109	0xbcc3fc1c	-0.023923926
110	0xbd377434	-0.044788554
111	0xbeb1bbfb	-0.3471373
112	0xbe1394e2	-0.14412263
113	0xbd9ba968	-0.07600671
114	0x3e221a4e	0.15830347
115	0x3efa2adc	0.48860824
116	0xbe96f974	-0.29487193
117	0x3e2ec821	0.1706853
118	0xbe223f79	-0.15844525
119	0x3e5b0019	0.21386756
120	0xbe62f0d6	-0.22162184
121	0x3c0b786d	0.008512598
122	0xbe2d3e1b	-0.16918223
123	0xbe394f8d	-0.18096752
124	0xbe93d20f	-0.288712
125	0xbf042a95	-0.51627475
126	0x3d62809c	0.055298433
127	0xbe75783d	-0.23971649
128	0xbe5eefcf	-0.21771167
129	0xbd1bc5a8	-0.038030297
130	0xbc7a722e	-0.015286012
131	0x3ee4f476	0.4471776
132	0xbea7d8ed	-0.3278269
133	0xbe6cdb13	-0.23130445
134	0xbe26885e	-0.16262957
135	0xbdc032df	-0.09384703
136	0x3f310111	0.6914225
137	0x3eaaa788	0.3333094
138	0x3df3b50c	0.11899766
139	0xbdfe0399	-0.1240303
140	0xbb472cad	-0.003039162
141	0xbf116d6d	-0.56807595
142	0x3e3a9f93	0.18224935
143	0x3eaeac86	0.34116
144	0xbe89c9d5	-0.26911798
145	0x3f4e6957	0.80629486
146	0x3e91a895	0.2844893
147	0xbe63c6ee	-0.22243854
148	0x3f7493ac	0.9553783
149	0xbdfd1298	-0.12357062
150	0x3f1f6585	0.6226428
151	0x3ec83de1	0.3910971
152	0xbe747734	-0.23873597
153	0x3e4773e6	0.19477805
154	0xbc880fad	-0.016609037
155	0x3de91487	0.113808684
156	0x3f239f4c	0.6391494
157	0x3eb2f977	0.34955952
158	0xbeee88f9	-0.46588877
159	0xbf25bfa9	-0.64745575
160	0x3dda5998	0.1066162
161	0xbe0e1e2e	-0.138787
162	0xbf00e07b	-0.5034253
163	0xbece3ccc	-0.4028076
164	0x3dad7c84	0.08471015
165	0x3e1bfee8	0.15233958
166	0x3cb10e44	0.021613248
167	0x3e5dc7ce	0.2165825
168	0x3e9d4c69	0.3072236
169	0xbe07d556	-0.13264975
170	0xbdbc2a51	-0.09187759
171	0x3eff6a90	0.49885988
172	0xbda7423e	-0.081669316
173	0xbe857cd0	-0.26071787
174	0x3f0bbc59	0.5458427
175	0x3dca726b	0.09885105
176	0x3ed19500	0.4093399
177	0xbe896dea	-0.2684167
178	0x3cc142af	0.023591368
179	0xbe56581c	-0.20932049
180	0xbd67a229	-0.056551132
181	0x3e4e4bfc	0.20146173
182	0xbe6edac6	-0.23325643
183	0xbe1dd085	-0.15411575
184	0xbe9fbd1c	-0.31198967
185	0xbed03564	-0.40665734
186	0xbdca6da5	-0.09884194
187	0xbe581fcf	-0.21105884
188	0x3e3c41d4	0.18384486
189	0xbb2fcfbc	-0.00268267
190	0xbd375559	-0.04475913
191	0xbe917922	-0.2841273
192	0x3dda2adc	0.10652706
193	0x3dafb455	0.085793175
194	0x3f0086fa	0.5020596
195	0x3da36aea	0.079793766
196	0xbecfd588	-0.405926
197	0x3e1073a8	0.1410662
198	0xbdbf841b	-0.09351369
199	0xbd9d3e2c	-0.07677874
200	0x3efc1f70	0.49242735
201	0x3df5ee30	0.12008321
202	0x3f0eefc4	0.55834603
203	0xbe3e85fa	-0.18605796
204	0x3e6e1b09	0.232525
205	0xbeb2c368	-0.34914708
206	0xbc14255a	-0.009042108
207	0x3ea80091	0.32812932
208	0x3e97a8f6	0.29621094
209	0xbd75ad70	-0.059979856
210	0xbe9f25c5	-0.31083503
211	0xbeac77a0	-0.33685017
212	0xbead29da	-0.33820993
213	0xbe19f37f	-0.15034293
214	0xbe90b2a3	-0.2826129
215	0xbebfe3f1	-0.37478593
216	0xbebbd489	-0.3668559
217	0x3f1badbe	0.60811985
218	0x3e43865b	0.19094221
219	0x3f0a0846	0.53918874
220	0x3ed32d71	0.41245607
221	0xbd6cc26c	-0.057802603
222	0x3e024021	0.12719776
223	0xbcc63b05	-0.024198065
224	0xbd974c28	-0.073875725
225	0xbe0f272f	-0.13979791
226	0x3e909ae1	0.28243163
227	0xbee8e993	-0.45490703
228	0x3c956e6f	0.018241135
229	0xbe9ab7d0	-0.30218363
230	0xbd9e6ff0	-0.07736194
231	0xbea2454a	-0.31693488
232	0x3e06074b	0.1308872
233	0x3db01f73	0.085997485
234	0x3d44f8a0	0.04808867
235	0xbec32831	-0.381166
236	0xbdc85be3	-0.09783151
237	0xbe5a809b	-0.21338122
238	0xbec92a55	-0.3929011
239	0xbdc49027	-0.095978074
240	0x3d9a23ee	0.07526384
241	0xbe790d2e	-0.24321434
242	0x3d217f3b	0.039427977
243	0xbdaee0c8	-0.08538967
244	0xbe9d25cf	-0.30692908
245	0xbea4fd10	-0.3222432
246	0x3ecc9cf1	0.39963487
247	0xbbed18c0	-0.0072356164
248	0xbe422820	-0.18960619
249	0xbde5d2b9	-0.11221833
250	0x3d5eb473	0.05437131
251	0xbe86c089	-0.26318768
252	0x3ef0e990	0.47053194
253	0xbdd88d3c	-0.10573813
254	0xbe944359	-0.28957632
255	0xbb2bb74e	-0.0026201787

linear2.bias f4 [10]
0	0x3d14d7ab	0.03633849
1	0x3b9a9389	0.0047172946
2	0x3cbff170	0.023430556
3	0xbad55f5d	-0.0016279031
4	0xbd18e592	-0.03732831
5	0x3da5f8ef	0.08104121
6	0xbe142521	-0.14467289
7	0x3d90ea8c	0.07075986
8	0xbdfc29d8	-0.123126686
9	0x3d490d28	0.049084812
